…
opt.num_scales: 9, opt.min_size: 25, real_.shape[2]: 240, real_.shape[3]: 2640, opt.scale_factor_init: 0.75, pow1: 0.10416666666666667, log2: 0.75
scale2stop: 1, opt.max_size: 2000, real_.shape[2]: 240, real_.shape[3]: 2640, opt.scale_factor_init: 0.75, log1: 0.7575757575757576, log2: 0.75
opt.num_scales: 9, opt.stop_scale: 8, opt.scale1: 0.7575757575757576, real.shape[2]: 182, real.shape[3]: 2000
opt.scale_factor: 0.780249641128132, scale2stop: 1, opt.stop_scale: 8
GeneratorConcatSkip2CleanAdd(
  (channel): ChannelAttention(
    (avg_pool): AdaptiveAvgPool2d(output_size=1)
    (max_pool): AdaptiveMaxPool2d(output_size=1)
    (fc1): Conv2d(32, 2, kernel_size=(1, 1), stride=(1, 1), bias=False)
    (relu1): ReLU()
    (fc2): Conv2d(2, 32, kernel_size=(1, 1), stride=(1, 1), bias=False)
    (sigmoid): Sigmoid()
  )
  (spatial): SpatialAttention(
    (conv1): Conv2d(2, 1, kernel_size=(7, 7), stride=(1, 1), padding=(3, 3), bias=False)
    (sigmoid): Sigmoid()
  )
  (head): ConvBlock(
    (conv): Conv2d(3, 32, kernel_size=(3, 3), stride=(1, 1))
    (norm): BatchNorm2d(32, eps=1e-05, momentum=0.1, affine=True, track_running_stats=True)
    (LeakyRelu): LeakyReLU(negative_slope=0.2, inplace=True)
  )
  (body): Sequential(
    (block1): ConvBlock(
      (conv): Conv2d(32, 32, kernel_size=(3, 3), stride=(1, 1))
      (norm): BatchNorm2d(32, eps=1e-05, momentum=0.1, affine=True, track_running_stats=True)
      (LeakyRelu): LeakyReLU(negative_slope=0.2, inplace=True)
    )
    (block2): ConvBlock(
      (conv): Conv2d(32, 32, kernel_size=(3, 3), stride=(1, 1))
      (norm): BatchNorm2d(32, eps=1e-05, momentum=0.1, affine=True, track_running_stats=True)
      (LeakyRelu): LeakyReLU(negative_slope=0.2, inplace=True)
    )
    (block3): ConvBlock(
      (conv): Conv2d(32, 32, kernel_size=(3, 3), stride=(1, 1))
      (norm): BatchNorm2d(32, eps=1e-05, momentum=0.1, affine=True, track_running_stats=True)
      (LeakyRelu): LeakyReLU(negative_slope=0.2, inplace=True)
    )
  )
  (tail): Sequential(
    (0): Conv2d(32, 3, kernel_size=(3, 3), stride=(1, 1))
    (1): Tanh()
  )
)
WDiscriminator(
  (head): ConvBlock(
    (conv): Conv2d(3, 32, kernel_size=(3, 3), stride=(1, 1))
    (norm): BatchNorm2d(32, eps=1e-05, momentum=0.1, affine=True, track_running_stats=True)
    (LeakyRelu): LeakyReLU(negative_slope=0.2, inplace=True)
  )
  (channel): ChannelAttention(
    (avg_pool): AdaptiveAvgPool2d(output_size=1)
    (max_pool): AdaptiveMaxPool2d(output_size=1)
    (fc1): Conv2d(32, 2, kernel_size=(1, 1), stride=(1, 1), bias=False)
    (relu1): ReLU()
    (fc2): Conv2d(2, 32, kernel_size=(1, 1), stride=(1, 1), bias=False)
    (sigmoid): Sigmoid()
  )
  (body): Sequential(
    (block1): ConvBlock(
      (conv): Conv2d(32, 32, kernel_size=(3, 3), stride=(1, 1))
      (norm): BatchNorm2d(32, eps=1e-05, momentum=0.1, affine=True, track_running_stats=True)
      (LeakyRelu): LeakyReLU(negative_slope=0.2, inplace=True)
    )
    (block2): ConvBlock(
      (conv): Conv2d(32, 32, kernel_size=(3, 3), stride=(1, 1))
      (norm): BatchNorm2d(32, eps=1e-05, momentum=0.1, affine=True, track_running_stats=True)
      (LeakyRelu): LeakyReLU(negative_slope=0.2, inplace=True)
    )
    (block3): ConvBlock(
      (conv): Conv2d(32, 32, kernel_size=(3, 3), stride=(1, 1))
      (norm): BatchNorm2d(32, eps=1e-05, momentum=0.1, affine=True, track_running_stats=True)
      (LeakyRelu): LeakyReLU(negative_slope=0.2, inplace=True)
    )
  )
  (tail): Conv2d(32, 1, kernel_size=(3, 3), stride=(1, 1))
)
scale 0:[0/2000]
scale 0:[25/2000]
scale 0:[50/2000]
scale 0:[75/2000]
scale 0:[100/2000]
scale 0:[125/2000]
scale 0:[150/2000]
scale 0:[175/2000]
scale 0:[200/2000]
scale 0:[225/2000]
scale 0:[250/2000]
scale 0:[275/2000]
scale 0:[300/2000]
scale 0:[325/2000]
scale 0:[350/2000]
scale 0:[375/2000]
scale 0:[400/2000]
scale 0:[425/2000]
scale 0:[450/2000]
scale 0:[475/2000]
…
scale 3:[1475/2000]
scale 3:[1500/2000]
scale 3:[1525/2000]
scale 3:[1550/2000]
scale 3:[1575/2000]
scale 3:[1600/2000]
scale 3:[1625/2000]
scale 3:[1650/2000]
scale 3:[1675/2000]
scale 3:[1700/2000]
scale 3:[1725/2000]
scale 3:[1750/2000]
scale 3:[1775/2000]
scale 3:[1800/2000]
scale 3:[1825/2000]
scale 3:[1850/2000]
scale 3:[1875/2000]
scale 3:[1900/2000]
scale 3:[1925/2000]
scale 3:[1950/2000]
scale 3:[1975/2000]
scale 3:[1999/2000]
GeneratorConcatSkip2CleanAdd(
  (channel): ChannelAttention(
    (avg_pool): AdaptiveAvgPool2d(output_size=1)
    (max_pool): AdaptiveMaxPool2d(output_size=1)
    (fc1): Conv2d(64, 4, kernel_size=(1, 1), stride=(1, 1), bias=False)
    (relu1): ReLU()
    (fc2): Conv2d(4, 64, kernel_size=(1, 1), stride=(1, 1), bias=False)
    (sigmoid): Sigmoid()
  )
  (spatial): SpatialAttention(
    (conv1): Conv2d(2, 1, kernel_size=(7, 7), stride=(1, 1), padding=(3, 3), bias=False)
    (sigmoid): Sigmoid()
  )
  (head): ConvBlock(
    (conv): Conv2d(3, 64, kernel_size=(3, 3), stride=(1, 1))
    (norm): BatchNorm2d(64, eps=1e-05, momentum=0.1, affine=True, track_running_stats=True)
    (LeakyRelu): LeakyReLU(negative_slope=0.2, inplace=True)
  )
  (body): Sequential(
    (block1): ConvBlock(
      (conv): Conv2d(64, 64, kernel_size=(3, 3), stride=(1, 1))
      (norm): BatchNorm2d(64, eps=1e-05, momentum=0.1, affine=True, track_running_stats=True)
      (LeakyRelu): LeakyReLU(negative_slope=0.2, inplace=True)
    )
    (block2): ConvBlock(
      (conv): Conv2d(64, 64, kernel_size=(3, 3), stride=(1, 1))
      (norm): BatchNorm2d(64, eps=1e-05, momentum=0.1, affine=True, track_running_stats=True)
      (LeakyRelu): LeakyReLU(negative_slope=0.2, inplace=True)
    )
    (block3): ConvBlock(
      (conv): Conv2d(64, 64, kernel_size=(3, 3), stride=(1, 1))
      (norm): BatchNorm2d(64, eps=1e-05, momentum=0.1, affine=True, track_running_stats=True)
      (LeakyRelu): LeakyReLU(negative_slope=0.2, inplace=True)
    )
  )
  (tail): Sequential(
    (0): Conv2d(64, 3, kernel_size=(3, 3), stride=(1, 1))
    (1): Tanh()
  )
)
WDiscriminator(
  (head): ConvBlock(
    (conv): Conv2d(3, 64, kernel_size=(3, 3), stride=(1, 1))
    (norm): BatchNorm2d(64, eps=1e-05, momentum=0.1, affine=True, track_running_stats=True)
    (LeakyRelu): LeakyReLU(negative_slope=0.2, inplace=True)
  )
  (channel): ChannelAttention(
    (avg_pool): AdaptiveAvgPool2d(output_size=1)
    (max_pool): AdaptiveMaxPool2d(output_size=1)
    (fc1): Conv2d(64, 4, kernel_size=(1, 1), stride=(1, 1), bias=False)
    (relu1): ReLU()
    (fc2): Conv2d(4, 64, kernel_size=(1, 1), stride=(1, 1), bias=False)
    (sigmoid): Sigmoid()
  )
  (body): Sequential(
    (block1): ConvBlock(
      (conv): Conv2d(64, 64, kernel_size=(3, 3), stride=(1, 1))
      (norm): BatchNorm2d(64, eps=1e-05, momentum=0.1, affine=True, track_running_stats=True)
      (LeakyRelu): LeakyReLU(negative_slope=0.2, inplace=True)
    )
    (block2): ConvBlock(
      (conv): Conv2d(64, 64, kernel_size=(3, 3), stride=(1, 1))
      (norm): BatchNorm2d(64, eps=1e-05, momentum=0.1, affine=True, track_running_stats=True)
      (LeakyRelu): LeakyReLU(negative_slope=0.2, inplace=True)
    )
    (block3): ConvBlock(
      (conv): Conv2d(64, 64, kernel_size=(3, 3), stride=(1, 1))
      (norm): BatchNorm2d(64, eps=1e-05, momentum=0.1, affine=True, track_running_stats=True)
      (LeakyRelu): LeakyReLU(negative_slope=0.2, inplace=True)
    )
  )
  (tail): Conv2d(64, 1, kernel_size=(3, 3), stride=(1, 1))
)
scale 4:[0/2000]
scale 4:[25/2000]
scale 4:[50/2000]
scale 4:[75/2000]
scale 4:[100/2000]
scale 4:[125/2000]
scale 4:[150/2000]
scale 4:[175/2000]
scale 4:[200/2000]
scale 4:[225/2000]
scale 4:[250/2000]
scale 4:[275/2000]
scale 4:[300/2000]
scale 4:[325/2000]
scale 4:[350/2000]
scale 4:[375/2000]
scale 4:[400/2000]
scale 4:[425/2000]
scale 4:[450/2000]
scale 4:[475/2000]
…
scale 7:[1475/2000]
scale 7:[1500/2000]
scale 7:[1525/2000]
scale 7:[1550/2000]
scale 7:[1575/2000]
scale 7:[1600/2000]
scale 7:[1625/2000]
scale 7:[1650/2000]
scale 7:[1675/2000]
scale 7:[1700/2000]
scale 7:[1725/2000]
scale 7:[1750/2000]
scale 7:[1775/2000]
scale 7:[1800/2000]
scale 7:[1825/2000]
scale 7:[1850/2000]
scale 7:[1875/2000]
scale 7:[1900/2000]
scale 7:[1925/2000]
scale 7:[1950/2000]
scale 7:[1975/2000]
scale 7:[1999/2000]
GeneratorConcatSkip2CleanAdd(
  (channel): ChannelAttention(
    (avg_pool): AdaptiveAvgPool2d(output_size=1)
    (max_pool): AdaptiveMaxPool2d(output_size=1)
    (fc1): Conv2d(128, 8, kernel_size=(1, 1), stride=(1, 1), bias=False)
    (relu1): ReLU()
    (fc2): Conv2d(8, 128, kernel_size=(1, 1), stride=(1, 1), bias=False)
    (sigmoid): Sigmoid()
  )
  (spatial): SpatialAttention(
    (conv1): Conv2d(2, 1, kernel_size=(7, 7), stride=(1, 1), padding=(3, 3), bias=False)
    (sigmoid): Sigmoid()
  )
  (head): ConvBlock(
    (conv): Conv2d(3, 128, kernel_size=(3, 3), stride=(1, 1))
    (norm): BatchNorm2d(128, eps=1e-05, momentum=0.1, affine=True, track_running_stats=True)
    (LeakyRelu): LeakyReLU(negative_slope=0.2, inplace=True)
  )
  (body): Sequential(
    (block1): ConvBlock(
      (conv): Conv2d(128, 128, kernel_size=(3, 3), stride=(1, 1))
      (norm): BatchNorm2d(128, eps=1e-05, momentum=0.1, affine=True, track_running_stats=True)
      (LeakyRelu): LeakyReLU(negative_slope=0.2, inplace=True)
    )
    (block2): ConvBlock(
      (conv): Conv2d(128, 128, kernel_size=(3, 3), stride=(1, 1))
      (norm): BatchNorm2d(128, eps=1e-05, momentum=0.1, affine=True, track_running_stats=True)
      (LeakyRelu): LeakyReLU(negative_slope=0.2, inplace=True)
    )
    (block3): ConvBlock(
      (conv): Conv2d(128, 128, kernel_size=(3, 3), stride=(1, 1))
      (norm): BatchNorm2d(128, eps=1e-05, momentum=0.1, affine=True, track_running_stats=True)
      (LeakyRelu): LeakyReLU(negative_slope=0.2, inplace=True)
    )
  )
  (tail): Sequential(
    (0): Conv2d(128, 3, kernel_size=(3, 3), stride=(1, 1))
    (1): Tanh()
  )
)
WDiscriminator(
  (head): ConvBlock(
    (conv): Conv2d(3, 128, kernel_size=(3, 3), stride=(1, 1))
    (norm): BatchNorm2d(128, eps=1e-05, momentum=0.1, affine=True, track_running_stats=True)
    (LeakyRelu): LeakyReLU(negative_slope=0.2, inplace=True)
  )
  (channel): ChannelAttention(
    (avg_pool): AdaptiveAvgPool2d(output_size=1)
    (max_pool): AdaptiveMaxPool2d(output_size=1)
    (fc1): Conv2d(128, 8, kernel_size=(1, 1), stride=(1, 1), bias=False)
    (relu1): ReLU()
    (fc2): Conv2d(8, 128, kernel_size=(1, 1), stride=(1, 1), bias=False)
    (sigmoid): Sigmoid()
  )
  (body): Sequential(
    (block1): ConvBlock(
      (conv): Conv2d(128, 128, kernel_size=(3, 3), stride=(1, 1))
      (norm): BatchNorm2d(128, eps=1e-05, momentum=0.1, affine=True, track_running_stats=True)
      (LeakyRelu): LeakyReLU(negative_slope=0.2, inplace=True)
    )
    (block2): ConvBlock(
      (conv): Conv2d(128, 128, kernel_size=(3, 3), stride=(1, 1))
      (norm): BatchNorm2d(128, eps=1e-05, momentum=0.1, affine=True, track_running_stats=True)
      (LeakyRelu): LeakyReLU(negative_slope=0.2, inplace=True)
    )
    (block3): ConvBlock(
      (conv): Conv2d(128, 128, kernel_size=(3, 3), stride=(1, 1))
      (norm): BatchNorm2d(128, eps=1e-05, momentum=0.1, affine=True, track_running_stats=True)
      (LeakyRelu): LeakyReLU(negative_slope=0.2, inplace=True)
    )
  )
  (tail): Conv2d(128, 1, kernel_size=(3, 3), stride=(1, 1))
)
Traceback (most recent call last):
  File "/home/users/chenkaim/personal/SinGAN-PCG/main_train.py", line 29, in <module>
    train(opt, Gs, Zs, reals, NoiseAmp)
  File "/home/users/chenkaim/personal/SinGAN-PCG/SinGAN/training.py", line 39, in train
    z_curr,in_s,G_curr = train_single_scale(D_curr,G_curr,reals,Gs,Zs,in_s,NoiseAmp,opt)
  File "/home/users/chenkaim/personal/SinGAN-PCG/SinGAN/training.py", line 161, in train_single_scale
…
